word2vec/checkpoint/vae_pytorch_best.pt (torch, 1870 bytes, 2 tensors)

in_layer.weights f4 [9, 5]
000000 a9 a3 76 bf 81 10 15 40 e9 33 c4 3f ae e0 c9 bf
       -0.96343476 2.3291323 1.5328342 -1.5771692
000010 03 28 1f 40 19 d4 ec bf d0 1e ee 3e 0d b2 70 3f
       2.4868171 -1.8502227 0.46507883 0.94021684
000020 e8 d2 71 3e 28 9d ae bf a0 ca 10 40 83 5b 6f 3f
       0.2361561 -1.364171 2.2623672 0.9349901
000030 8a e7 bc 3e 77 9d 3c bf 09 29 9f 3c 61 76 76 3d
       0.368954 -0.7367777 0.019428747 0.06017149
000040 f0 e3 a9 bf 37 71 30 bf f9 fe 2e c0 46 3d 99 3e
       -1.3272686 -0.6892275 -2.7343123 0.2992956
000050 b0 dd e3 bf 3c e7 b4 bf 51 a5 de bd a2 7a 57 3e
       -1.7802029 -1.4133067 -0.10871375 0.21042874
000060 39 bb ac bf f8 f4 e2 3f 24 a3 ec be 82 cf 54 3f
       -1.3494636 1.7731009 -0.46218216 0.8312913
000070 35 13 84 bf e5 09 6d 3f b4 2a 65 bf f3 e8 2b bf
       -1.0318362 0.9259322 -0.89518285 -0.6715233
000080 24 a3 2e be 97 50 1e 40 09 4d 08 bf b7 2a 3c 40
       -0.1705442 2.4736688 -0.53242546 2.940107
000090 83 08 db 3e 07 1b 10 c0 ad f0 7f bf b2 21 5c bf
       0.4277993 -2.2516496 -0.9997662 -0.85988915
0000a0 3e a5 c6 3e 68 b6 99 bf e2 08 91 3f 72 ed a5 3f
       0.38797945 -1.2008791 1.1330836 1.2963088
0000b0 d7 27 1e c0
       -2.4711816

out_layer.weights f4 [5, 9]
000000 ba ce 27 bf 9f d4 c1 3f 3a 8a 7e bf eb c3 96 3f
       -0.65549815 1.5143012 -0.99429667 1.177854
000010 7c 17 28 bf d3 7d 8d 3f 0f bd 03 c0 0f 31 df 3e
       -0.65660834 1.1054024 -2.0584142 0.43592116
000020 ca 27 53 bf 95 f0 9e 3f bd cb 94 3f 12 44 19 40
       -0.8248259 1.241717 1.1624676 2.3947797
000030 8a 55 9f 3e cd f7 3f bf a8 44 bf 3f 71 f9 9f 3f
       0.3111995 -0.7498749 1.4942827 1.2497998
000040 2e 59 e3 3f 3c 33 84 bf 2b 83 99 3d 13 59 1a bf
       1.776159 -1.0328135 0.074957214 -0.60292166
000050 38 83 a9 3e fa ec 76 3f 5d 49 76 3f 3a 7d bc 3e
       0.33107924 0.9645535 0.96205693 0.3681429
000060 09 23 e4 3f a9 69 8b bf c5 a8 73 bf 91 d3 2e 3f
       1.7823192 -1.089162 -0.95179397 0.68291575
000070 1a 4e 63 3f cb 91 b6 bf 9a ed bb be 40 69 d8 3f
       0.8879105 -1.4263242 -0.36704713 1.690712
000080 e7 5b 10 c0 86 8f bd 3e e1 b4 63 3e 06 a7 48 bf
       -2.2556093 0.37023562 0.22236969 -0.7837986
000090 19 1d 7e 3f e0 80 74 bf 29 cc cd 3f 09 be f5 bf
       0.9926315 -0.9550915 1.607793 -1.9198619
0000a0 b5 55 0b 3e a9 1a 58 bf d8 dc 17 bf 23 ac a9 3f
       0.13606913 -0.8441568 -0.59321356 1.3255657
0000b0 7a 09 e0 3e
       0.4375723
